model.tflite (tflite, 261456 bytes, 13 tensors)

sequential/dense/BiasAdd/ReadVariableOp f4 [32]
00000000: ec64 30bd ec8c 2fbd c17d 61bc aa09 ccbc
00000010: 121c d8bc ecaf 7ebc e070 b23d 94d8 87bd
00000020: 4ff4 683c 962f 913d 66a7 61bd c6c1 20bc
00000030: 93ab 0abd aafc 393d c255 6e3d 1bac 73bc
00000040: 9ad9 b43b ae5d e03d 5d02 fe3d 0000 0000
00000050: a93e 1b3d 00f1 90bb 7cc6 7d3d d702 1abd
00000060: d6af af3d d6f0 6ebc 88d2 06bd 3253 a5bc
00000070: 074d 743d 6a2a 8ebd d2cf 753c 2e29 6bbc
-0.043064997 -0.042859003 -0.013762892 -0.024906952 -0.026380572 -0.015544873 0.087129354 -0.06633106
0.014218404 0.070891544 -0.055091284 -0.009811824 -0.033855032 0.045406975 0.058187254 -0.014872576
0.005519104 0.10955368 0.124027945 0.0 0.037901554 -0.0044232607 0.061956868 -0.037600365
0.0857846 -0.014583787 -0.032915622 -0.020181272 0.05964377 -0.069416836 0.0150031615 -0.01435308

sequential/dense_1/BiasAdd/ReadVariableOp f4 [6]
00000000: f8c0 003e c2d5 a2bd 5d28 dcbc 960f f5bc
00000010: edb5 423d 8149 a6bd
0.12573612 -0.07950927 -0.026874715 -0.029914659 0.04753678 -0.081194885

sequential/dense/MatMul f4 [32, 32]
00000000: 9eec 77be 51ce 03bd 56e0 863e a149 993e
00000010: f58a 9a3e fa38 8c3e d378 433d 47b5 8cbd
00000020: 6125 e8bd 956d ecbc 998f a0be 3482 61bd
00000030: f43f a4be df87 d23d 76e6 92be 5e29 34bd
00000040: 8a94 8d3e 07cf 59be 516b 86be 0f58 f93d
00000050: 9ab1 0fbe b2f5 d9be a1bb 73be 8af5 1d3e
00000060: 9f3c 15be 058a edbd fdd2 053e 650b 4d3d
00000070: 7754 8bbe 1dc2 533e b55c 8fbe 939a 2d3e
00000080: f655 683e 4b8b 6cbe 6804 89be 6d27 833e
00000090: be5e 85bd 2778 403d b3a2 1cbe ce2b 63be
000000a0: bddc d6bc d046 a8be 23c7 9d3d bd29 93be
000000b0: b19c 07bb e0ab fa3c 5473 3fbe e4fd 67be
000000c0: 9ba1 253e 57f0 b63b 199b 5f3d 8f52 86be
000000d0: 6afb 813d 328a 4b3e 03d4 923e 8c97 3bbd
000000e0: ebcc 86be b11d c037 6d60 8dbe 59b2 66be
000000f0: a80b a7be 0e97 b53d 3689 5fbe ea5e 96be
00000100: 3e63 bbbd 605f 953e 405c b53d 3ee5 debd
00000110: 7492 973e 5b36 30be bcd1 21be 0ff7 8bbe
00000120: 1ee0 0b3d 29fb 0cbd 9105 35bc 36b9 d9bd
00000130: d75f 223d dbc2 1b3e 3da1 f9bc 3c35 5ebe
00000140: 5e7f 9ebe c3c3 6fbd 1fc4 8cbd 60b5 87be
00000150: de79 863e d0e5 323e 72f3 7c3e 5958 26be
00000160: 83b5 8cbe 8898 e4bc 7bce 4ebe 990e 85be
00000170: 2741 af3d 1cd7 d43d 2f0f 7bbe d7d8 52bd
00000180: 7718 59be af7d 9c3e 183d 65be a9d5 7fbe
00000190: b0a2 86be ff06 24be a34f 5f3e 590a 79be
000001a0: 9036 34be 1353 933e 0fa3 c6bd 2e00 8a3e
000001b0: d9a1 7cbe d8a3 1ebe 53d4 643e c76e a7bd
000001c0: 1fac 833e 4104 b8bd f65a 283e c6da 98bd
000001d0: 1ef3 943e b3ef c2bc fdbb bcbd e393 b73e
000001e0: 121b 35bd f75f 9f3e 8f8c 94be 876f 39be
000001f0: 204e a4bd b19a 883d 87e7 90bd 1542 8d3e
00000200: d155 8fbe d949 b4bd 078f 6b3d e796 813e
00000210: 0d3d 713e fe2a 503b ee6f 543d 16a0 dc3d
00000220: 8a07 a13e 7d40 14be 9caa 833e b516 29be
00000230: 726c 673e 0466 0a3e 2996 6bbe 446d 773e
00000240: 52b7 843e 30c7 6ebe 5960 443e 7312 89bd
00000250: b663 873e 8a7c 65be 1804 983e 678e 9f3e
00000260: c4c0 1f3d c448 e03d f4a3 32be a966 2e3e
00000270: 61fb 753d 52f6 883e 5b4d 5bbe 1df3 00be
00000280: a7dd 013e 7e10 a03b 34ea a2be 6a00 523e
00000290: 5794 97be 0863 873d 8049 253e 480e ebba
000002a0: 5925 9b3d ceb4 5a3e 456c 533c 9492 89be
000002b0: 14e5 4d3e 4100 073e 264a 303e 97fc 153e
000002c0: cc7a 87be 93c3 083c ece4 f33d 99bb 83be
000002d0: a3b3 213e ddaa 4c3e 5e67 3fbe a483 9ebd
000002e0: cea0 0e3e 1c1c 693d ea68 02be 629f f9bd
000002f0: 567e 943e bb5b 843e 0984 3f3e 551c fdbd
00000300: ecf0 e63e 5f6d 453d 415a 96bc 6451 67be
00000310: 220b c5bb 74c2 89be 2007 1fbd 338f 4dbe
00000320: 9c80 aabd 5dde 8cbe ce40 843d 12be 8b3e
00000330: 5f2b 8e3e 9766 983e 2056 403d 83a1 a6be
00000340: 648d 92be c930 e23c e62f 24be 4f2f 513e
00000350: 69ba 29be edaa b03e 45a3 143e a901 7fbc
00000360: d85e c63d 6443 87be 2d6a a93e 157a 26be
00000370: 783a 963e 67a4 253e ba6b 2b3e 8c6d a8bd
00000380: dcd7 d3bc 08a3 753e 6693 d8bd da51 a6bd
00000390: f04c 37be c0f7 7a3e efb9 d7bb f2f9 23be
000003a0: e553 363e 115e 753d d662 55be a75c aa3e
000003b0: 9b8f f83c 9eb0 383e ca77 b73d bfec c33d
000003c0: 114e 363e 7cf0 623e 47b1 963d 6ed9 6bbe
000003d0: 0734 8c3e 6edb 2abe 56b2 fabc 3f4d 623e
000003e0: e1e3 693e d6a0 91be 549b 13be 1717 95be
000003f0: eba2 1fbe c155 423e 73b5 afbd 04ad b43d
-0.24211356 -0.03217918 0.2634303 0.29938987 0.3018414 0.2738722 0.04772265 -0.068705134
-0.113352545 -0.028860847 -0.31359556 -0.055055812 -0.32080042 0.102798216 -0.28691453 -0.043984763
0.2765239 -0.21270381 -0.2625375 0.12174999 -0.14032593 -0.42570263 -0.23802043 0.15425697
-0.14573906 -0.11598591 0.13068767 0.050059695 -0.2721288 0.20679517 -0.28000417 0.16953497
0.22689041 -0.23100011 -0.26761174 0.25616017 -0.06512211 0.046989586 -0.1529644 -0.22184679
-0.026228303 -0.32866526 0.07703998 -0.2874278 -0.002069276 0.030599535 -0.18696338 -0.22655445
0.16174929 0.00558285 0.054591272 -0.26234862 0.063467816 0.19876936 0.28677377 -0.045798823
-0.26328215 2.290201e-05 -0.2761263 -0.22528972 -0.3262608 0.08866702 -0.21829686 -0.2936929
-0.09149788 0.29174328 0.08855486 -0.10883568 0.29603922 -0.17208235 -0.15802664 -0.27336928
0.03414928 -0.034419212 -0.01104869 -0.10631029 0.03964218 0.1521105 -0.030472392 -0.21699995
-0.30956548 -0.058536302 -0.06873345 -0.26505566 0.26264852 0.17470479 0.24702242 -0.1624464
-0.27482232 -0.027904764 -0.20195954 -0.259877 0.08557349 0.10392591 -0.24517511 -0.051476326
-0.21200739 0.3056464 -0.22386587 -0.24983849 -0.26295996 -0.16018294 0.21807723 -0.24320354
-0.17598939 0.28774318 -0.0969907 0.26953262 -0.24671115 -0.15492189 0.2234662 -0.08175426
0.25717255 -0.08985186 0.16440949 -0.07463603 0.29091734 -0.023795938 -0.092155434 0.35855016
-0.04421527 0.31127903 -0.29013488 -0.1810895 -0.08022714 0.0667013 -0.0707541 0.2758948
-0.2799516 -0.08803148 0.05750945 0.25310442 0.23558445 0.0031763907 0.051864557 0.107727215
0.31451064 -0.14477725 0.25716102 -0.16512568 0.22599962 0.13515478 -0.230065 0.24162775
0.25921112 -0.23318172 0.19177379 -0.06692972 0.2644326 -0.22410789 0.29690623 0.31163332
0.039002195 0.10951379 -0.17445356 0.17031349 0.060054187 0.26750427 -0.21416228 -0.1259274
0.1268221 0.0048847785 -0.31819308 0.2050797 -0.29605362 0.066106856 0.1614132 -0.0017933333
0.07575483 0.21358034 0.012904231 -0.26869643 0.20106918 0.1318369 0.17215785 0.14647137
-0.26460874 0.00834741 0.11908898 -0.25729063 0.15791182 0.19987054 -0.18691775 -0.07739952
0.1392853 0.056911573 -0.12735334 -0.12188603 0.29002637 0.25851235 0.18702711 -0.123589195
0.45105684 0.048200008 -0.018353583 -0.22589642 -0.00601329 -0.26906168 -0.038825154 -0.20074157
-0.083253115 -0.275134 0.06457673 0.2729345 0.27767465 0.2976577 0.046957135 -0.325451
-0.28623497 0.027611153 -0.16033897 0.20428203 -0.16575016 0.34505406 0.14515407 -0.015564361
0.09686059 -0.26418602 0.33088818 -0.16257508 0.29341483 0.16175996 0.16740313 -0.082240194
-0.025859766 0.23987973 -0.10574989 -0.08121081 -0.17900443 0.24508572 -0.0065834443 -0.16013315
0.1780544 0.05990416 -0.20838484 0.33273813 0.030341914 0.18036124 0.08958395 0.0956664
0.17803217 0.2216205 0.07358032 -0.23032162 0.27383444 -0.16685268 -0.030602615 0.2209978
0.22840835 -0.2844302 -0.14414722 -0.2911918 -0.15589492 0.18978025 -0.085795306 0.088220626

sequential/dense_1/MatMul f4 [6, 32]
00000000: a67a b5be ca3b c0be 4819 bcbe 8313 20bf
00000010: 8ea3 96be d9c1 ae3d 17c3 ae3e a9a1 02bf
00000020: 6051 663d bd0e c13d f4f8 0fbe b82d 22bd
00000030: dd9a 85be 991a 01be 239b f93d 6c77 a4be
00000040: a442 293e 40e8 813e a663 ef3e d0ce a23d
00000050: 279c 143c 8238 d2bc 89da 743d d3db 8cbe
00000060: 06a1 243e 769f 90be 0a65 aabe b624 693e
00000070: c056 883e 1c32 8bbe d2c4 f3bc d9e7 853e
00000080: 43f7 94be 5095 dcbd 654a bfbe 363c 9dbe
00000090: fea0 adbe 42ae d23e b1ab 86be 29bd 9f3d
000000a0: dee5 863e 8b9c c5be 76a4 80bd 7d02 1cbe
000000b0: f71a d03e 4259 5fbe 8823 33be ca21 aebe
000000c0: 7a2a 9d3d cc8e f8bd 1e3f fabe 125c 0c3e
000000d0: 2d05 1bbe b7ce ac3e fa72 b43d 797b 25bd
000000e0: 7e90 b4bd 811e 22be 7fe7 6cbc 4601 ad3d
000000f0: be4f cc3e fc22 54be f7c4 83bd 3390 4cbe
00000100: 9283 5ebe 64a6 f23c 8ddb bbbe 10f6 b23d
00000110: 4fae 5fbe 65cb 45be 3d42 c3be f08a 1b3d
00000120: 84ad a5be cbe8 8bbe c12f a73e 98fc 6cbd
00000130: d890 ebbd e3f0 923d 5e40 9abe d89c e3bc
00000140: 1797 023e 15a4 a8be a6bb 97be f510 7cbe
00000150: 3485 643e 94c5 b13c 0b1c a4be e14e 5c3e
00000160: 7b24 9dbd d3fc 7b3e aafd 97be 7d4c 36be
00000170: 3b3d 3ebe bb94 023b d14a adbe 3cdb d23d
00000180: 34d4 b5bd f9bd 57be 472d a33d c2f2 a33d
00000190: 912f 27be 8529 ac3e 40a9 d6bd 3eed b8be
000001a0: 4bf2 cebe 6651 193e 7709 8e3e 6971 5c3e
000001b0: 7c52 05bd e57c 75bd 76ff d0bd adfa e93d
000001c0: b5ef b2be d328 03be 4e66 313e 21cd ca3e
000001d0: fb9f 00be bd0e 093d 0c11 80bd 6eda 31be
000001e0: 4a2c aabe 335b d1bd 0917 4c3e f606 dcbe
000001f0: a920 8a3d 9668 0b3e 7190 68bc 82ae 9f3d
00000200: 3add c7be cf50 17bd d39e 9ebe 7205 2c3e
00000210: 4b57 b83d 4d81 913d 913b a2be 247a 94be
00000220: b890 9b3e e6b4 f0bd c679 cfbd 99f0 bdbe
00000230: 8eee 91be b12f db3d 0389 96be 5572 e5bc
00000240: 5945 b4be 4b51 dcbe 0acf 133e 5e0c c5be
00000250: d808 60be 61f8 e4be ed57 42be e8c9 64be
00000260: 117a 4d3e 0092 5b3e 2b3d adbd 4698 bcbe
00000270: 246e bbbd 837a c53d b39b 3d3e d133 51be
00000280: c2be c73e 276c 803e 54d8 f4bd 5727 ca3e
00000290: 9b5b d53d c351 44bc 447d 0aba a961 25bc
000002a0: 8dbe 1a3d 90a2 bfbe ac8d 933e 3458 9dbe
000002b0: 4b96 a6be 3a32 54be 36c0 73be fe5d 313e
000002c0: b302 25be fd7d cebe 1970 593e 6246 563e
000002d0: 111f c2be 35e7 babe c9a2 30be 0512 87be
000002e0: 0bb3 08be 0e49 a13d 45ee 9ebe 8266 b23e
000002f0: e4f8 c3be 698b 5abe a69c 683e 54b1 c1bd
-0.35445136 -0.37545615 -0.36738038 -0.6252977 -0.29421657 0.08533067 0.34133217 -0.51027924
0.05622995 0.09426639 -0.14059812 -0.039594382 -0.26094714 -0.12607802 0.12187793 -0.32122362
0.16529328 0.25372505 0.46755713 0.079496026 0.009070433 -0.02566171 0.059778724 -0.27511463
0.1607705 -0.2824666 -0.33280212 0.2276791 0.26628685 -0.27186668 -0.029756937 0.26153448
-0.29094896 -0.107706666 -0.37361446 -0.3071 -0.3391189 0.41148573 -0.26302865 0.07799751
0.2634725 -0.38595995 -0.062813684 -0.15235324 0.40645573 -0.21811393 -0.17494023 -0.34010154
0.076741174 -0.12136611 -0.4887628 0.13706997 -0.15138693 0.3375146 0.088109925 -0.040400956
-0.08816622 -0.15831949 -0.01445949 0.084475085 0.39904588 -0.2071647 -0.064340524 -0.19976883
-0.21729878 0.029620357 -0.3669094 0.08738339 -0.21843837 -0.1931587 -0.38136473 0.037974298
-0.32358944 -0.27326044 0.3265362 -0.05785808 -0.11502236 0.07174852 -0.30127233 -0.02778475
0.12752949 -0.32937685 -0.29635352 -0.24615844 0.22316438 0.021700658 -0.32052645 0.21514465
-0.07672974 0.24608164 -0.29685718 -0.17802615 -0.18578045 0.0019925076 -0.33846143 0.10295722
-0.08878365 -0.21068563 0.0796762 0.08005287 -0.16326739 0.33625427 -0.104815006 -0.361185
-0.4041923 0.14972457 0.27741596 0.21527638 -0.032549366 -0.05993356 -0.10204975 0.11424766
-0.34948507 -0.12808542 0.17324182 0.39609626 -0.12561028 0.03346132 -0.062532514 -0.1736848
-0.33236915 -0.10222473 0.19930662 -0.4297406 0.06744511 0.13614115 -0.014194594 0.077969566
-0.3903597 -0.0369423 -0.30980548 0.16798952 0.09001025 0.0710474 -0.3168607 -0.28999436
0.3038385 -0.11753254 -0.10130648 -0.37097624 -0.28502315 0.10702456 -0.29401407 -0.02800862
-0.35209158 -0.43030772 0.14434448 -0.38485998 -0.21878374 -0.44720748 -0.18978854 -0.22342646
0.20066096 0.21442413 -0.084589325 -0.36834925 -0.09151867 0.09642508 0.18516426 -0.20429923
0.39012724 0.25082514 -0.11955324 0.3948314 0.10417863 -0.011982384 -0.0005282948 -0.010094085
0.03777938 -0.37428713 0.28819025 -0.30731356 -0.3253654 -0.20722285 -0.23803791 0.17321011
-0.16114311 -0.40330496 0.21234168 0.20925286 -0.37914327 -0.36504522 -0.17249598 -0.26380935
-0.1334955 0.07875262 -0.3104116 0.34843832 -0.38275826 -0.21342243 0.22716007 -0.09457651

sequential/lstm/while/lstm_cell/BiasAdd/ReadVariableOp f4 [128]
00000000: 9359 b63c b811 b33c 819e 7d3c e640 8f3b
00000010: 8c69 8d3b 6cfe 283c 3f6e 043d 16a0 263d
00000020: 941b 5d3d ed66 16bc 2537 d5b9 7786 9c3c
00000030: 772a a13b 80ac 793c 0fc7 1f3d 3131 a23c
00000040: b0dd 05bc fb69 373d 4a8a 8b3c 5802 0f3d
00000050: 8bc4 01bb 86bf 643c d59e 043d 2482 383d
00000060: 03d5 8838 99e4 8d3c 516b fa3a 1121 cfba
00000070: c5a5 dc3a 7f44 053d d2cf 3ebb e041 933c
00000080: 84fb 823f b7fa 823f 3f3f 803f 6211 823f
00000090: c06d 813f 3219 813f 9836 843f 13cf 883f
000000a0: e499 863f 2cb3 7b3f 950e 803f b6c7 803f
000000b0: 0f98 7e3f 84fe 813f f123 8a3f f030 843f
000000c0: 752e 7d3f 9fa9 853f 441f 833f 7c5f 833f
000000d0: acc5 7f3f b782 823f d4ca 823f 50d6 883f
000000e0: 244e 803f 5f8d 833f 4282 813f 742e 8a3f
000000f0: 6fbc 803f 2413 833f 1ccd 823f 7a66 823f
00000100: d097 813b 3f56 5a3c db90 4a3c 699c 393c
00000110: eb89 b8bb b872 5aba 2992 b03c 41eb 4f3d
00000120: dbab 02bc d057 09bc 229d aabc b7c1 9c3b
00000130: 0c02 31bc ef90 fdbb 4b0d fd3c ffbf 383c
00000140: 2688 35bc f70d 763c e452 063c f989 aa3c
00000150: 7696 0bbc 403d 51b9 ce75 5b3c 9105 113d
00000160: c58f 36bc 42a3 14bb dbac 03bd 2140 5c3a
00000170: 0a6a 0dba c406 8b3b 4108 0a3c d6b8 333c
00000180: f90d af3c 9c69 0c3d 2641 553c e1c1 873c
00000190: 1d48 173a d041 d33c 3d3e 843c 6bde 723d
000001a0: 42bb 303d 29ac 4d3b 8246 8f3a 0f75 853b
000001b0: 3e75 2eba 98ce 973c 3498 023d 3688 e83c
000001c0: 7cde 77bc ee9a c63c 23d3 953c ee41 d73c
000001d0: 3b1f 47bb 3f65 07bb 9811 cd3c e20b 6a3d
000001e0: 3f8c c9ba 4256 d93c 3e83 f23c 2ef5 7c3b
000001f0: 7971 8db9 1c18 e7bb 2d40 0a3c c645 5d3b
0.02225951 0.021859035 0.015479685 0.00437175 0.0043155607 0.010314565 0.0323317 0.040680014
0.05398138 -0.009179813 -0.00040667612 0.019107087 0.0049183923 0.015238881 0.039008196 0.019798847
-0.00817053 0.044778805 0.017033715 0.034914345 -0.0019800987 0.013961678 0.032378037 0.045045987
6.524662e-05 0.017320918 0.0019105469 -0.0015802701 0.0016834071 0.032536026 -0.002911557 0.017975748
1.0233006 1.0232762 1.0019301 1.0161555 1.0111618 1.0085814 1.0329161 1.0688194
1.0515714 0.9832027 1.000445 1.0060947 0.99450773 1.0155797 1.0792218 1.0327435
0.9889901 1.0442389 1.0243917 1.0263515 0.99911 1.0196141 1.0218148 1.0690403
1.0023847 1.0277518 1.0117877 1.0795426 1.0057505 1.0240216 1.0218844 1.0187523
0.003954865 0.013326227 0.012363638 0.011328795 -0.0056316755 -0.00083331345 0.02155407 0.050761465
-0.007975544 -0.008382753 -0.02082688 0.004783835 -0.010803711 -0.0077382247 0.030890128 0.011276244
-0.011079824 0.015017978 0.008198474 0.020817744 -0.008519759 -0.0001995461 0.013394786 0.0354057
-0.011142676 -0.0022680317 -0.03214727 0.000840189 -0.0005394524 0.00424275 0.008424819 0.010969361
0.021368967 0.034280404 0.013016021 0.01657194 0.00057709386 0.025788218 0.016142959 0.059294146
0.043147333 0.0031383133 0.0010931047 0.0040727924 -0.00066550437 0.018531129 0.031883433 0.028385263
-0.015128728 0.024243798 0.018289154 0.026276555 -0.0030383605 -0.0020659713 0.025032803 0.05714024
-0.001537688 0.026530389 0.029603597 0.0038598287 -0.0002697816 -0.0070524346 0.008438152 0.0033763512

sequential/lstm/while/lstm_cell/MatMul_11 f4 [128, 32]
00000000: 4d5b cfbc 4ffa 573e 22d0 cd3c 78a1 583d
00000010: 5ee4 7ebd 5a17 ae3d fe24 703d 5644 4dbd
00000020: c7a8 903d 13af b1bd b822 393d e178 82bd
00000030: d118 893e 3533 b43d 81ef a63d d39e f4bd
00000040: f3f7 3fbc f20e ffbb 2404 05bc d373 0e3d
00000050: 0580 0f3a c822 d23d 7d8a 883b 446e 0c3b
00000060: 41e6 9ebc 370e 2c3d dd04 3cbe a04d 073e
00000070: 0575 063e 84c5 5eb9 4da6 3d3a 5247 b93d
00000080: dc36 24bd 98ca 283d 081c 30bd 9aba 4d3d
00000090: 072d 953d 09af 2c3e 0a71 94bd 3193 0cbe
000000a0: 16ae a53d d26e c73a fca9 13bb 6086 363b
000000b0: 976c 2e3d 2ebc 303e a3d3 013d f41b ac3c
000000c0: 289c c93b 76f2 0f3e f4fe 0ebb e81d 43bd
000000d0: 417b e9bc f731 5b3e e2df 823d c123 47bd
000000e0: 4c66 bf3c d7f1 5d3e 6c6a a03c 0e74 bfbd
000000f0: 3497 1c3e e7af d93d fcc2 70bd 3538 bc3d
00000100: f680 023e 0cd7 943d bd62 c23d 80c4 84bd
00000110: d09a 893d bd3d 09be 7f1b 173e 322d ddbc
00000120: 5c46 273c 2be8 223d 1006 a5bd 197c 063c
00000130: ace9 3b3d b306 633d 1a7d 02be a114 f03d
00000140: 7162 18bc 7901 163e d140 c03d 30e6 0abd
00000150: 5242 b53c ca9e 4d3c 5414 9e3d 2884 12bd
00000160: ba8f 22bc b565 3bbc 3cfb 5dbe 522b f1bc
00000170: 07b0 093d 2946 2d3e 62e2 333e 1ca5 873d
00000180: b160 dabc 9b94 d43d 9c6d 053e 458b ab3d
00000190: 5740 c8bc a35f 263e d579 d43d 9439 82bd
000001a0: f749 2abc 075b 99bc 1c7d edbc 24a9 133e
000001b0: 7b91 93bd 53b8 32bd 2be5 903d 30cc c03c
000001c0: 1893 973d 62fa ab3d 8948 b23d d730 663d
000001d0: 44fb 20bc 8f87 73bd 9a4d de3d 6305 3cbe
000001e0: d701 ec3d d0d0 e53d 4354 7cbd 3227 cfbc
000001f0: f928 993d f97d d9bd 8ae2 993d 2cdc 3bbd
00000200: d27f 96bd 8f8b 8c3c 182b 8a3d 4d95 803c
00000210: 6132 95bd 4904 213d db55 323e e2d2 4bbd
00000220: 34ad 8c3e 5628 f43d d0a0 733d 975c 953d
00000230: 67f5 c53b 144b 513e c4df 233c 4f5f b13d
00000240: 4d53 3f3e d52b db3c 3652 513d f936 67bd
00000250: 4deb d63d a81d 873d ac9a 30be 7596 cb3d
00000260: 559e 05be 27df 2e3e eacf 063e 9e37 9bbd
00000270: 5b49 a1bc 0f97 0e3b 485f 55be 05d8 b1bc
00000280: 205b cf3d 05f7 ebbc b5a1 9fbc 9161 073e
00000290: 1bb8 6c3d 4ddf ad3d 1deb acbb 910f f73b
000002a0: 2a1b a43c cd74 1cbd 2117 a1bd 81e1 ed3c
000002b0: 7425 993d 4d19 1fbe 7593 253c 1078 923d
000002c0: a5cd b13d 8974 183d 4542 b2bd bd23 a63d
000002d0: a170 4f3c cf05 773c 24e4 48bd 9af9 073e
000002e0: 94c4 69be 96e9 013e d83e 20bd deac 29ba
000002f0: d0ff 17bd 1959 07be 92d5 16bd 26a0 873d
00000300: 8bee bc3c 1aee a13a e406 a63d 97a4 bc3b
00000310: 57b9 2c3e 888a febc 26b6 debc 1aae e0bd
00000320: d84c 8d3d b362 13bd 4c35 9ebd 81bf 8c3d
00000330: ce39 b83d c42f 8a3c 088f 223d 2fdf d23d
00000340: 7af9 973d 858a 503d 8c2f 6e3d 2c7e 04bb
00000350: 9e3b 94bd adba 26bd d6e3 893e 8d69 92bd
00000360: 3735 59bd f3e8 a53d 1bc9 ae3d 91bd d73c
00000370: 7998 e23c aaf3 5ebc 524f d43c bc7d dc3d
00000380: a380 01bd c141 a43d dcfe 0ebc 7a45 49be
00000390: 0908 363d 17cd b7bd 7711 a4bb eb06 cdbb
000003a0: b74a 59bc ab5f cebd 1252 c1bd e10c d9bd
000003b0: efd7 9abb 2be1 bdbd 7587 aa3d 81ce 86bd
000003c0: 752e 9dbd 52bf 9e3d dab5 303d df05 3b3d
000003d0: 7177 033d 53cb 3e3e 157f 11be 7ccd 67bc
000003e0: 64e5 2d3e fb04 5e3d 2699 8a3d d0d1 12bd
000003f0: 79af fdbd 9990 4cbe df0a ff3d fc4c 0ebd
-0.02531209 0.21091579 0.02512366 0.052888364 -0.062229507 0.08500548 0.05862903 -0.050114
0.07063442 -0.08675971 0.045199126 -0.06370712 0.26776746 0.087988295 0.081511505 -0.11944356
-0.011716831 -0.007783764 -0.008118663 0.034778427 0.00054740935 0.1026054 0.0041668997 0.0021428028
-0.019396903 0.042005744 -0.1836123 0.13213205 0.13130577 -0.0002124515 0.00072345586 0.090468064
-0.04009138 0.041208833 -0.042995483 0.050226785 0.07283979 0.16863646 -0.07248123 -0.13728024
0.08089845 0.0015215522 -0.0022531739 0.002785109 0.042584028 0.17259285 0.031695973 0.021009423
0.0061526485 0.14057335 -0.0021819444 -0.047635943 -0.028501155 0.21405779 0.063903585 -0.048618082
0.023364209 0.21674286 0.019581996 -0.093483075 0.15292054 0.10629254 -0.0587797 0.09190408
0.12744507 0.072675794 0.09491489 -0.06482792 0.06718981 -0.13402458 0.14756583 -0.02699909
0.010209646 0.039772194 -0.08057797 0.008208298 0.045877144 0.05542631 -0.12743035 0.11722685
-0.009300814 0.14649 0.09387363 -0.03391093 0.02212635 0.012550065 0.07718721 -0.035770565
-0.009921962 -0.011437823 -0.2167787 -0.029439602 0.03361514 0.16921295 0.17566827 0.06623289
-0.026657434 0.10379907 0.13030094 0.08376173 -0.024444742 0.1624742 0.103748 -0.063586384
-0.010393611 -0.018720163 -0.02899032 0.14419991 -0.072054826 -0.043632817 0.0707496 0.023534864
0.07401103 0.08397366 0.08705241 0.05619892 -0.009825531 -0.05945545 0.10854645 -0.1836143
0.115237884 0.112214684 -0.061603796 -0.025287244 0.07478518 -0.106197305 0.07513912 -0.04586427
-0.073485985 0.01715639 0.06746501 0.015696192 -0.07285 0.039310727 0.17415564 -0.04976166
0.27475893 0.11921756 0.059479535 0.07293051 0.006041217 0.20438796 0.01000208 0.08660757
0.1868412 0.0267543 0.051103793 -0.05644891 0.10494099 0.06597453 -0.17246503 0.09940807
-0.1304868 0.17077313 0.1316525 -0.075789675 -0.019688299 0.0021757518 -0.20837128 -0.021709451
0.101248026 -0.028804312 -0.019486288 0.13220812 0.057792764 0.08489857 -0.005277051 0.0075396975
0.020032484 -0.038197327 -0.078657396 0.029038193 0.07477847 -0.15536995 0.010105957 0.07151806
0.08681802 0.03722051 -0.08704046 0.08112285 0.01266113 0.0150770685 -0.049045697 0.13278809
-0.22828895 0.12686762 -0.039122432 -0.00064725976 -0.037109196 -0.13217582 -0.03682477 0.06622343
0.023062965 0.0012354285 0.08106783 0.0057569253 0.16867577 -0.031071916 -0.027186465 -0.10970707
0.068994224 -0.0359828 -0.07725009 0.06872464 0.089954 0.01686848 0.039687186 0.10296475
0.07420631 0.050913353 0.058150813 -0.0020216806 -0.072379336 -0.04070537 0.26931638 -0.071490385
-0.053029265 0.08101072 0.085344516 0.02633551 0.027660595 -0.013607899 0.02591673 0.107661694
-0.03161682 0.08020354 -0.008727755 -0.1965541 0.044441257 -0.08974665 -0.005006965 -0.006256928
-0.013262442 -0.10076841 -0.09439482 -0.105981596 -0.0047254483 -0.09271463 0.08326618 -0.06582356
-0.076748766 0.07751335 0.043142177 0.045659896 0.03209633 0.1863225 -0.14208634 -0.014148112
0.16982037 0.05420397 0.06767492 -0.035844624 -0.123869844 -0.19977035 0.12453245 -0.034741387

sequential/lstm/while/lstm_cell/MatMul f4 [128, 126]
00000000: 4da4 96bd d21d 27bd d959 0cbe fa36 c7bd
00000010: 4afd 05be 00cf 9f3d 5107 493c 54c1 94bd
00000020: 6e96 ab3c 7ea5 2bbd 2a78 36bd 6028 d7bc
00000030: 3930 35bd 744a aabc 6d72 2b3b 56d1 123d
00000040: 7e23 843d 46ab 663c 803b 99bd 9674 103d
00000050: 15fd a7bd 285c 0c3c ecc3 ea3c bb13 44bd
00000060: 02d6 8f3d 5734 e53c cadc 073e 70da 08bd
00000070: 1f1d af3d 1717 dd3d 714b bc3d d05d a43d
00000080: 0167 023e fd84 023e a73d 803d ad17 81bd
00000090: 4ea5 293d 6508 28bd 5729 2abd f954 7abd
000000a0: 1d8d b43d 5833 55bd 9100 93bd 91dc 083d
000000b0: 8ea8 e83d 713a d9bd 9527 033e 7a57 6e3d
000000c0: 788f c23d 6862 48bb 725d 663d 4d3a 95bd
000000d0: 5f2c 0abe 10d1 6fbc d8f5 793d eb3b 5bbd
000000e0: da22 21be 0021 75bc a4b9 e33d 8edf fd3d
000000f0: ac15 0bbe 56fa bcbd 6930 0c3e bd33 14be
00000100: 94b1 d93d adb4 ef3d 647a 1ebd cfa8 eebd
00000110: 8bce f8bb 92bb 473d d0a8 b0bd 8cf7 a2bd
00000120: 0de1 803d 3396 633c f112 423d 3941 37bd
00000130: 874b e8bd 2f03 ed3b 3502 fe3c b14e 8cbc
00000140: 265c fbbd f717 893a 8ef4 d73d 587e 923d
00000150: 3b9c 823d 4b1b 823d 7ba9 1e3c f4d1 1f3d
00000160: 29ee df3d a95a 013c 868a 0bbe 3966 0c3d
00000170: 6ad1 3d3d 0b1c 8dbd fed1 debc 861b 6bbd
00000180: 09c9 e63d 157a f1bd eea2 d03d abbe 8e3d
00000190: efdb 313e d486 8b3b d4f4 a9bd 79ce 373e
000001a0: 6930 25be c151 adbd ac7d 893b 196a 29be
000001b0: 3f0d 09bd a877 07bb 8d93 863d 68a6 8a3d
000001c0: f4e4 073e 44c9 ebbd eb00 e3bd 8239 383e
000001d0: 39cb 4fbe a31c 4c3d bfd6 113c a244 bcbd
000001e0: 6339 113e 9adb 44bd c19c d73c e530 383e
000001f0: 3a58 fbbc 0fd6 02bd 4cd2 0fbe 5b84 cebd
00000200: fd1c 45bd 7176 7dbd fa75 753d 5ccc 023e
00000210: a8fd e63c c024 c23b 6b9d e3bd 25bf 113c
00000220: b8f8 113e 1f45 18bc 581a a3bd 832e ffbb
00000230: 787f dabd c1cc af3d 662a 303d d9d2 b83c
00000240: 86a8 07be 5924 4a3d 4a8c 03bd f89f 963d
00000250: 9d22 153e 8b99 aabc ccd8 18bc 86d0 493d
00000260: c115 213d 3898 77bd 7184 7c3d df19 17be
00000270: 3ef5 59bd 6442 4abc d25c 17be ffbb 333d
00000280: 5943 1b3d 85f1 163e 45d8 be3d 8620 9fbd
00000290: a70d 14be afb0 a13d 32a0 0fbe 91dd 993c
000002a0: ddcf e7bc ff31 3d3d de50 f7bd 1116 693d
000002b0: 2e55 ac3c 7eba 0c3d 175d 3e3d 92c9 08bd
000002c0: 411b a6bd ce2a 083e d8e6 ffbd 2aa9 2cbe
000002d0: 9aee 06be 2fad 043e 4db6 0abd 40f6 f33d
000002e0: 58f8 acbd 5808 fe3d e2b6 b43d b296 ecbd
000002f0: cecb f53c 9ee9 f53d 0c80 653c 68e4 a03d
00000300: 944e 49bd 9e56 0aba 6716 11be 4c8e d13d
00000310: 698d e7bd b2a0 e4bd b053 1a3e b2fe 6c3d
00000320: a1b8 993d 4ba9 9b3d 2478 93bd d0f7 9a3d
00000330: 8643 d8bd 3632 683d c017 033c fb65 6b3c
00000340: 7135 183e 2813 99bd 9777 60bc 5426 dbbc
00000350: 7a42 22bd 4cc6 b8bd 6375 2ebd 9e02 90bd
00000360: 6084 01bd ebad a43d 2c82 02be cf0a fd3d
00000370: 2a05 d7bd 5f2c c23d c5bb 82bd 0998 303e
00000380: 8900 f5bd fc36 8bbd 534c e5bd 8ca1 eebd
00000390: a478 e0bd e0f2 cc3d 474a dfbd ce3c 003e
000003a0: fc9a 2bbc 0cb6 943d b000 8b3d 6d2c c83d
000003b0: f85f aa3c 0231 243e ec1b e43d 2fb3 d6bd
000003c0: a548 103e ac4f 0c3c 7d73 9abd 52ee bf3d
000003d0: 5e43 0abe 86e7 d8ba b548 10be dc07 043c
000003e0: bf3c 04be 70fb 683c 050f ef3d c382 b2bd
000003f0: 6b5a cdbd 0263 aabd 5e2d 923d 1227 c33c
-0.07355557 -0.040799923 -0.13706149 -0.09727283 -0.13084903 0.07803154 0.012269811 -0.07263437
0.020945754 -0.041905873 -0.04454819 -0.02626437 -0.04423544 -0.020787455 0.0026160732 0.03584417
0.06452082 0.014078921 -0.07482052 0.035267435 -0.082025684 0.008566894 0.028657876 -0.04787038
0.070232406 0.02797906 0.13267818 -0.033411443 0.08550476 0.1079542 0.09194077 0.08025706
0.12734605 0.12746044 0.06261759 -0.06303344 0.041417412 -0.04102363 -0.04154333 -0.061116192
0.08815978 -0.05205092 -0.071778424 0.033413474 0.11360274 -0.1060685 0.12808068 0.058188893
0.09500021 -0.0030576233 0.05624146 -0.072865106 -0.13493489 -0.014637247 0.06102547 -0.05352394
-0.15735951 -0.014961481 0.111193925 0.12396155 -0.13582486 -0.09227435 0.13690342 -0.14472862
0.106295735 0.11704383 -0.03869094 -0.116532914 -0.007592981 0.048762865 -0.086259484 -0.07957372
0.06292925 0.013890791 0.047381345 -0.044739936 -0.11342531 0.0072330455 0.031006912 -0.017127367
-0.12273435 0.0010459413 0.10544692 0.071530044 0.06377455 0.06352862 0.009683962 0.039018586
0.10934097 0.00789515 -0.13627061 0.034277175 0.04634229 -0.068901144 -0.027199741 -0.057399295
0.11268813 -0.117908634 0.10187326 0.06969961 0.17369054 0.004258016 -0.082986504 0.17949857
-0.16131748 -0.08462859 0.0041958895 -0.1654438 -0.033459898 -0.0020670686 0.06571112 0.06770021
0.13270932 -0.11512998 -0.110841595 0.17990687 -0.20292367 0.049831998 0.008901297 -0.09192778
0.14182048 -0.04806099 0.026319863 0.17987402 -0.030681718 -0.031942423 -0.14045066 -0.100838386
-0.04812335 -0.061880533 0.059926964 0.1277327 0.028197125 0.005924791 -0.111140095 0.00889567
0.14255035 -0.0092938235 -0.07964009 -0.007787527 -0.10668844 0.085839756 0.043009184 0.022561477
-0.1324788 0.04935107 -0.032116212 0.0735473 0.14563985 -0.020825168 -0.009329032 0.04927113
0.039327387 -0.0604479 0.061649743 -0.14755963 -0.053212397 -0.01234493 -0.14781502 0.04388046
0.037906025 0.1474057 0.09318594 -0.07769875 -0.14458333 0.07895028 -0.14025953 0.018782409
-0.02829736 0.046190258 -0.12075971 0.05690581 0.02103671 0.03435754 0.046475496 -0.033395357
-0.08110667 0.13297579 -0.12495202 -0.16861406 -0.13176957 0.1295669 -0.03386526 0.11912203
-0.08445805 0.12403935 0.08823945 -0.1155218 0.030004408 0.120074496 0.01400758 0.07856065
-0.049147204 -0.0005277189 -0.14168702 0.10232219 -0.11306269 -0.11163463 0.15070987 0.057860084
0.07505918 0.076006494 -0.072006494 0.07566798 -0.10559754 0.05668851 0.008001268 0.014367576
0.14864136 -0.07474357 -0.013700387 -0.026751675 -0.03961418 -0.09022197 -0.042592417 -0.07031749
-0.031620383 0.08040985 -0.12744969 0.12355577 -0.10499032 0.09481119 -0.063834704 0.17245497
-0.11962993 -0.06797597 -0.11196198 -0.11651906 -0.109605104 0.10007262 -0.10902839 0.12523195
-0.010473963 0.07261285 0.067872405 0.097740985 0.020797715 0.1603432 0.11138138 -0.10483395
0.14090212 0.008563917 -0.07541559 0.09371628 -0.13502261 -0.0016548492 -0.14090236 0.008058514
-0.12913798 0.014220104 0.116727866 -0.08716347 -0.100270115 -0.083196655 0.07137559 0.023822341

sequential/lstm_1/while/lstm_cell/BiasAdd/ReadVariableOp f4 [256]
00000000: 6d05 903c 3d38 22bc 3278 163d b233 793b
00000010: 0000 0000 1c9d 1b3b 6666 2fba 680b 84bc
00000020: d03b b43c 5f1d 7b3d 8cba 03bc 3877 ce3b
00000030: 7016 933c 333d 02bb ec6f ac3b 9264 683c
00000040: 9b95 2fba 088d 8fbc 0785 f13c 6341 0bbc
00000050: ea3e 123c d948 483b 83f9 e13c ee4a a53c
00000060: d15f 923d 2c1d bcb9 1f8e c73c 04f0 0cbd
00000070: 10f6 f2ba b2ba 0b3d 2e21 8bbc 4e48 873d
00000080: eff5 1f3d 2e61 1b3d f2c2 cf3c 2604 cd3c
00000090: 0307 e03b 9036 c33c f532 fabb 67c0 51bc
000000a0: e74e 683c 9ab3 ec3c b7d2 8c3c 0000 0000
000000b0: fe26 e3bb a4e4 af3b 2df2 2cb8 8231 323c
000000c0: 3cfb e63c 6f3f e0bb 8b7a 0b3d 880b 393c
000000d0: 912a 313b bdb7 b53c f91a ac3c 2563 96bc
000000e0: a3aa 44bc 53a8 30bc 6bfa ab3c 6512 a93c
000000f0: f35e f63b 5138 db3c 7531 cebb 2ed7 813c
00000100: ddf4 823f 1e41 7e3f 00b5 7f3f 930c 813f
00000110: 0000 803f 4429 813f 8274 803f b121 7c3f
00000120: 0b83 813f b19e 973f 41f1 7d3f 94c8 7e3f
00000130: 61d2 813f ca3f 853f 8eb2 803f 4510 843f
00000140: 8a79 803f bd97 7c3f bc02 843f 85b8 7c3f
00000150: ee76 813f 2553 793f 808c 853f 61b0 823f
00000160: a9fe 893f 2647 803f 57e8 843f 36f3 783f
00000170: 3fe7 7e3f 77d9 843f f6ec 7b3f a3d3 853f
00000180: ff04 853f e56e 833f c07d 853f a802 853f
00000190: 8eb4 823f 8e87 843f 55cb 7e3f 877b 7e3f
000001a0: 2041 823f 7587 823f 46a0 833f 0000 803f
000001b0: 623a 7e3f 500f 813f c7fd 7f3f e520 813f
000001c0: 7adc 833f 585b 7f3f 2d10 863f 72e1 823f
000001d0: a9d8 803f 4059 843f aa1a 833f 11de 7f3f
000001e0: cfb0 803f 0e6d 813f d554 823f 76cb 823f
000001f0: 8401 813f 0a5d 813f 5783 7b3f b8b8 813f
00000200: b446 fb3b c9cd 62bc 1b41 173b 7e04 5d3b
00000210: 0000 0000 f0fe 0bbb ee33 90bc 5d83 3bbc
00000220: b571 cb3b a794 c43d d846 f2bb 36ed e4bc
00000230: ab92 2d3d 2244 493d 8a7f 3ebc a099 103c
00000240: 5ddb 26bc cc67 edbc 774a b43c 2240 34bc
00000250: 4e93 95bc be66 b4bc 8bfb 743c 79d0 0c3d
00000260: 578c 8c3d 4e8a ad3b a9c8 163c 08a0 3cbc
00000270: cc73 81bb faa6 243d 0897 64bb 80f8 0b3d
00000280: fc91 e43a d728 8e3c 0410 813c ce15 90bc
00000290: 4215 b03c 02e6 eb3b 4a28 27bb 1f45 c3bb
000002a0: dda9 703b 2643 f53c 663d 913c 0000 0000
000002b0: 0c22 0abc 912e f63a a527 88bc 7841 3e3a
000002c0: 37d4 bdbb d290 073d 0d6b ed3c 497f 513b
000002d0: 8d9c 613a 6124 7a3c 9ada 4e3c 76ad b7bc
000002e0: 393f 7e3c 1b35 a8bb 41a0 9c3c d8f4 e53b
000002f0: 5e36 493b 04e6 ffb8 088e f6bb 1a51 473d
00000300: 3c83 063d 6ee9 15bc 56b3 553c cb5d d23b
00000310: 0000 0000 b21d ae3a 3ad0 943c 54ec 1abc
00000320: cd88 e23c 0826 873d 9510 41bb 402d 80bb
00000330: 5724 283a 9456 8e3b 8e2d 4dbb 8bd5 6bbb
00000340: 5ee6 6938 5872 d2bb b06f 143d cad3 0ebc
00000350: 5a00 213c e0ea 5dbb fe86 2b3d 17ce a33c
00000360: b45b 703d 4dfa 173a cb29 1c3d 1e84 febc
00000370: 76b6 4abc 008b ff3b 25ee 85bc 181e 433d
00000380: a38b 333d 9a6b ee3c a9d6 1e3d 007d aa3c
00000390: b952 983a f5bf 0c3c 6793 e3bb 84f3 6abc
000003a0: 9320 323c 6931 313d bc87 eb3c 0000 0000
000003b0: dac9 40b9 6cf6 d13b 7986 3ab8 e6ad dd3b
000003c0: b1da 8d3c a2a5 d7bc adce 5b3d 7508 aa3c
000003d0: 26aa 58bb bd0b a63c 6717 2d3d ceca 85bc
000003e0: f92c cabb b4ad 35bb 79fa 313c 58e2 633c
000003f0: 9222 023c 0475 8a3c 4570 29bc 14e5 f53b
0.017580712 -0.009901104 0.03673572 0.0038025198 0.0 0.0023744768 -0.0006690979 -0.01611872
0.022001177 0.061307307 -0.008040082 0.006300833 0.017955035 -0.0019872903 0.0052623656 0.014184134
-0.0006698013 -0.017523304 0.029482378 -0.008499476 0.008926133 0.0030560999 0.027584797 0.02017733
0.07147182 -0.0003587989 0.02435976 -0.034408584 -0.0018536467 0.034113593 -0.016983595 0.06605588
0.0390529 0.037934475 0.025361512 0.025026392 0.0068367734 0.023829728 -0.007635469 -0.01280222
0.014178968 0.028894234 0.01719032 0.0 -0.0069321385 0.0053678323 -4.123354e-05 0.010876061
0.02819597 -0.0068434994 0.034052413 0.011294253 0.0027033428 0.02218234 0.021008955 -0.018357823
-0.012003574 -0.010782319 0.020993432 0.020638654 0.007518643 0.026760252 -0.006292517 0.015849676
1.0230976 0.9931811 0.9988556 1.0081962 1.0 1.0090718 1.0035555 0.9848891
1.0118116 1.1845304 0.9919625 0.9952481 1.0142328 1.0410092 1.005449 1.0317465
1.0037091 0.98669034 1.0313334 0.98719054 1.011442 0.97392493 1.0433502 1.0210077
1.0780841 1.0021713 1.0383404 0.9724611 0.99571604 1.0378865 0.9840845 1.0455211
1.039215 1.0268217 1.0429001 1.0391436 1.0211351 1.0353868 0.9952901 0.9940724
1.0176125 1.0197588 1.0283287 1.0 0.99307835 1.0082798 0.9999661 1.0088164
1.0301659 0.99748755 1.0473686 1.022505 1.006612 1.0339737 1.0242512 0.9994822
1.0053958 1.0111406 1.0182139 1.0218341 1.0078588 1.0106518 0.98247284 1.0134497
0.0076683406 -0.013843008 0.0023079577 0.0033724601 0.0 -0.0021361671 -0.017602887 -0.011444894
0.0062086233 0.09598666 -0.007393699 -0.027945142 0.0423762 0.049137242 -0.011627087 0.00882569
-0.010184136 -0.028980158 0.022008164 -0.011001619 -0.018258717 -0.022021648 0.014952551 0.034378503
0.06862705 0.005296028 0.009203115 -0.011512764 -0.0039505716 0.040198304 -0.003488006 0.034172535
0.0017438526 0.017353458 0.015754707 -0.017588522 0.021494512 0.00719905 -0.0025506192 -0.0059591676
0.003672234 0.029939245 0.017729472 0.0 -0.008430969 0.0018782188 -0.016620466 0.00072576804
-0.0057931202 0.033097096 0.02898171 0.0031966737 0.0008606397 0.0152674625 0.012625361 -0.02242158
0.015518003 -0.005133284 0.019119384 0.007017713 0.0030702571 -0.00012202191 -0.0075242557 0.04866133
0.03284 -0.009149892 0.013043245 0.0064198724 0.0 0.0013283996 0.018165696 -0.009455759
0.027653122 0.06599051 -0.0029459347 -0.003911644 0.00064141065 0.004343817 -0.003130767 -0.0035985436
5.5766075e-05 -0.0064223222 0.036239326 -0.008717487 0.009826744 -0.003386192 0.041876785 0.019995732
0.058681205 0.00057974906 0.038125794 -0.031068858 -0.012372604 0.0077985525 -0.016348908 0.04763612
0.04383434 0.029104043 0.038778935 0.020811558 0.0011621333 0.008590688 -0.006945062 -0.014340285
0.010872024 0.04326001 0.028751247 0.0 -0.00018385742 0.0064075496 -4.4471093e-05 0.006765115
0.017316194 -0.026324097 0.0536639 0.020755986 -0.00330604 0.02026927 0.042258646 -0.016332056
-0.006169912 -0.0027721943 0.01086294 0.013908945 0.0079428125 0.0169015 -0.010341709 0.007504115

sequential/lstm_1/while/lstm_cell/MatMul_11 f4 [256, 64]
00000000: 0f1a edba c0da 7a3d 5f2a cfba f187 8b3d
00000010: bf73 2ebd a412 943d fbaf 043d 7551 e9bc
00000020: 9d49 523d a864 a4bd 829d b53c 4a58 bbbc
00000030: 875c ee3d ba1c 913d 2bcd 23bd d341 543c
00000040: cb5a 053d 294f 8f3d ea60 ae3d 5581 ad3d
00000050: ca3f 6c3b c97c 30bd ee0b 0e3d 9f15 b93b
00000060: b3fa 443e a051 133d 1729 1f3d bb63 1cbd
00000070: 2efa e53d 14e0 713d bb07 563d ebda cabc
00000080: 182d aabd 2918 28bc 7c3e ce3d aba8 da3b
00000090: d2fa 4b3d 906b b63c 98b8 153d f349 6e3d
000000a0: aa6a 8b3b 693b 37bd 7391 19be aac4 383d
000000b0: 80ce ebbc f7d0 20bb 871e a0bb 43c8 17bd
000000c0: d844 9fbc 11fb 78bc f852 183e 6296 e5bd
000000d0: d9dd df3d 7490 383d 0fa3 cd3d 82a5 ebbd
000000e0: 0c07 af3d c092 9bbd 1fee ffbc 5bd2 a33b
000000f0: 4719 30bd 4c6d a13c 6535 19bd 4a44 783d
00000100: 55ea a9bb 07f0 3dbc 58d9 493c 63b0 3ebc
00000110: 5657 a83d ab58 8fbd ec09 613b 8cac 823d
00000120: 519d 2fbc 6d2b 21bc 2962 50bd 9034 02bd
00000130: 1bcc 7d3d de60 07be 09b0 303d 0189 ec3c
00000140: 9453 34bd 16ed 45be 1ed1 ad3d 6740 01bd
00000150: d7f1 b7bd 0e98 dfbc b84a 08bd b9c2 5ebd
00000160: 4b81 433e 99eb 0f3d 1b0e 93bc 95db 363d
00000170: 5e1d d6bc 9f83 f1bc 4732 54bd 896e a23d
00000180: a3f1 42bd 523f 223d f22f 85bd f48c 3a3d
00000190: 155c 263d d326 e43c e9af 30bd 95c0 0dbd
000001a0: b38c 103d e8f2 08ba 2866 773d 10fe 7d3d
000001b0: 9d99 6a3d 5330 c13c dbaf 013d bb64 a33d
000001c0: 6337 8e3c a377 9c3d 77a2 523d 12da 9ebd
000001d0: 977a 04bc 9e26 a63d 9e16 52bb 28f6 0a3e
000001e0: 8376 67bd 7ef6 babd ad7a cabd ef18 02be
000001f0: 2f4d d1bc f643 1b3c 799d cebd 4f72 babd
00000200: c3a0 003c f9a9 8fbc aa20 4b3d 2ff5 3b3c
00000210: 45bf 62bd d75a 7f3c 8fbe 43bd 5673 0ebe
00000220: 3c2a 0e3d b0f4 9d3d c399 343e 5caf 3d3d
00000230: f16e 9e3c a9d5 a83d 7788 6d3c 3f2d 833d
00000240: 2171 ad3d b028 88bc 56c1 7d3d 06ca eabb
00000250: 565a 1f3e b603 c93d 6250 ba3c edc2 dabc
00000260: 89e7 043d 2f67 023e 6992 07bd 911f 303c
00000270: 35f7 5fbd 9918 253e d722 a9bd c567 213c
00000280: 28be 993d a310 59ba 77c2 8c3c f5dd 3a3d
00000290: 798d cb3d e45a 41bc bc83 b33d c912 3a3d
000002a0: ed31 df3b 438a 1c3d ada0 b33d 2686 013d
000002b0: 27b4 4fbd 1d8e 8b3c f899 cdbd 0419 763d
000002c0: 6fe1 2f3d 550e 343e 61f3 04bd 1126 2e3d
000002d0: 182f e23c a266 69bd 63b2 a73d 1dee 503d
000002e0: c755 62bd a08c ea3d 30f3 993d 6f66 543d
000002f0: 6581 853d 65e8 5b3d 2d1e 033d 0296 d03d
00000300: 724d 883d 2d31 3cbd af48 65bc a7ac 133d
00000310: 5311 c83d 5128 be3d b5e1 abbc 1cc4 d33d
00000320: d409 8bbc aaa3 793c ff95 7c3c 21c4 ce3d
00000330: 7986 ff3d 5d11 183b 393b 893c 4b8b a8bd
00000340: 6964 973c e47b 12bd feaa a4bc 999e 7e3d
00000350: 030c 123d 9f39 a0bd 547a 85bd 912d 943b
00000360: 46b3 4e3d 156d fb3c f82e 92bd 3112 a2b8
00000370: 2ff3 f6bc 0593 e13b 2c13 f53c 2ee4 06bd
00000380: 21c1 4d3d 4292 aebd e156 2abd e488 a03d
00000390: cc79 753c a763 95bd a30f e6bc 67b3 5bbd
000003a0: 77d7 a6bc e4fa 9d3d 3fe5 1b3c 9d90 7fbd
000003b0: 7d13 703c d2c5 31be 917a 5c3c 2f90 f1bd
000003c0: f88e a33c a50c 86bb c1a7 2dbd f260 183e
000003d0: aced dcbc 0b86 a83d 51cc 1cbc 06bd d3bc
000003e0: b152 d43d 9b38 c43c b516 bd3c 3b81 d63d
000003f0: 485d 8d3d 8a31 a93d b536 303c 0c77 49bd
-0.0018089431 0.061243773 -0.0015805474 0.06813038 -0.042590853 0.07230118 0.03239439 -0.028481225
0.051339734 -0.08027011 0.022169832 -0.022869248 0.11638742 0.07085557 -0.039990585 0.012955147
0.03255729 0.069975205 0.08514579 0.08471934 0.0036048763 -0.043087754 0.034679346 0.0056483294
0.19236259 0.035966516 0.038857546 -0.038181048 0.112293586 0.05905159 0.052253466 -0.024762591
-0.08309382 -0.0102596665 0.10070512 0.006672939 0.049799748 0.022268087 0.036552995 0.058175992
0.0042546587 -0.044734392 -0.1499689 0.04510943 -0.02878499 -0.0024538615 -0.0048864516 -0.03705622
-0.019442007 -0.015196578 0.148754 -0.11210324 0.10930986 0.045059636 0.100408666 -0.115061775
0.08546266 -0.0759635 -0.031241475 0.0049994416 -0.042992856 0.019705437 -0.037404437 0.060612
-0.0051854053 -0.0115928715 0.012319885 -0.011638734 0.08219783 -0.06999334 0.003433819 0.06380567
-0.0107186595 -0.009837014 -0.050874863 -0.03178841 0.06196223 -0.13220546 0.04313663 0.028873922
-0.04402502 -0.19328722 0.084871516 -0.03155556 -0.08981674 -0.027294185 -0.033274382 -0.05438492
0.1909229 0.035136793 -0.017951062 0.044643003 -0.02613705 -0.029481707 -0.05180576 0.07931239
-0.047593724 0.03961117 -0.065032855 0.04554458 0.04061516 0.027850544 -0.04313651 -0.03460749
0.03529043 -0.0005224184 0.06040016 0.06200987 0.057275403 0.023582613 0.03166185 0.07978197
0.017360395 0.076400064 0.05142447 -0.07756437 -0.008085868 0.081128344 -0.0032056938 0.13570464
-0.056509506 -0.09129046 -0.0988668 -0.12704824 -0.0255495 0.009476652 -0.10088629 -0.09103834
0.007850829 -0.017537104 0.049591698 0.011472031 -0.05535819 0.015585623 -0.047789153 -0.13911185
0.034708247 0.07712686 0.1763678 0.046309814 0.01934001 0.082438774 0.014497868 0.064051144
0.08468843 -0.016620964 0.061951958 -0.0071651964 0.15561804 0.09815161 0.022743408 -0.026704276
0.03244737 0.12734674 -0.033098612 0.0107497135 -0.054679114 0.16122665 -0.08258598 0.009851401
0.075069726 -0.0008280372 0.017182572 0.04562183 0.09939093 -0.011801455 0.08765361 0.04542807
0.0068113715 0.038217794 0.08770881 0.031622075 -0.050708916 0.017035538 -0.10039133 0.06008245
0.0429396 0.17583592 -0.032458667 0.04251677 0.027610347 -0.056982644 0.081883214 0.051008333
-0.055257585 0.11452603 0.075170875 0.0518555 0.06518821 0.053688426 0.0320112 0.10184862
0.066553965 -0.045945335 -0.01399438 0.036053326 0.09768929 0.092850335 -0.020981649 0.10340139
-0.01697246 0.015236774 0.015416621 0.10096002 0.124768205 0.0023203709 0.016751872 -0.08229693
0.018480496 -0.035762683 -0.020101067 0.06216297 0.035655987 -0.0782349 -0.06517473 0.0045220335
0.050463937 0.030691663 -0.07137865 -7.7281504e-05 -0.030145256 0.006883981 0.029916368 -0.032932453
0.05023301 -0.0852399 -0.04158676 0.0783861 0.014982652 -0.07294398 -0.028083628 -0.05363789
-0.020366414 0.07713869 0.009515106 -0.062393773 0.014653084 -0.17360619 0.0134569565 -0.11795079
0.019965634 -0.004090863 -0.04239631 0.14880732 -0.0269688 0.08228692 -0.009570197 -0.02584697
0.10367335 0.023952773 0.023082117 0.104738675 0.069025576 0.08261402 0.010755231 -0.049185798

sequential/lstm_1/while/lstm_cell/MatMul f4 [256, 32]
00000000: b3d1 003e ab70 4c3c 516d f3bd 3e48 16bd
00000010: 0eb2 473c 80d6 bb3d 5899 d53d 17cd 883d
00000020: 2918 a83b a7ff c33d 5946 01be 995c 0bbe
00000030: 636a d63c a500 0abe 7bc9 fc3d e72d 703d
00000040: 9d5f b1bd 6f1d 103e 851a 06be 1ac4 45bd
00000050: 8145 173e 02f6 0bbe 12a3 76bd 25eb 253e
00000060: fc30 133d 7921 d03d da65 00be 1bf3 7dbd
00000070: 6222 33bd e19e 4cbd b2fc c8bd 42a1 163e
00000080: ecee b0bc 43bf 39bc b6ea 52bd 6e0d 04be
00000090: a9fe eb3d 572d 9bbd 7ac0 07be d9c5 de3c
000000a0: 8aa6 973c e1bd c6bb 8eff a53d e252 78bd
000000b0: 8862 ff3d 0b64 1bbd c0d0 cf3b 9ec0 91bc
000000c0: 25c2 4dbd 2b24 eebd 9004 9d3c d540 1fbe
000000d0: c288 d1bc dcc8 d53d 1b38 37bd 5d1b a5bd
000000e0: ec5c 353d f5a5 0ebe aa1e 13be 4be3 f7bd
000000f0: b94e e7bc ad48 f9bd 3a1a 3b3d aa9f 003d
00000100: bd08 55bd f84e bf3c 1fe8 3d3d 3592 123e
00000110: badd 893d c5b4 babd 2d2e 17be 730a 043e
00000120: dad7 a33d e8cc 183d f333 5b3d ddc5 e6bd
00000130: 8112 81bd f46b ceba 67a0 383e 0590 3b3d
00000140: 4323 efbd 8182 393e 0dd8 66bd de9a 2c3e
00000150: 0eee 2b3d ed3c 143e e2dc 9f3d 7c9a 0bbe
00000160: 3ef9 3e3d 72eb 9d3d b705 f8bd b3df 9b3d
00000170: a6f3 b43d 232d b83d 097d f33d 8d17 62bc
00000180: 52d4 ba3d f93f 6cbc da25 5e3d 43ce 94bd
00000190: 725d 96bc 7823 103e 995f 00be c98d 94bd
000001a0: 3487 843c 7052 8dbd 0def 923c 521c 053d
000001b0: 3ee2 b23c 8379 b43c 8c59 75bc 9bcb d33c
000001c0: 7f60 01be cfa0 a3bc e001 873d e94a 593d
000001d0: 2f9e 92bd 8336 be3d c0dc 56bd a8a4 f0bd
000001e0: 1d98 583d 27cc 113d 26a9 733d 4823 233d
000001f0: c327 b53d 0831 7fbd fffa 813d 41c3 a4bd
00000200: d740 90bd 7a85 afbd a8f2 38bd e079 4e3c
00000210: 6840 e13d 6826 c53d 749f aa3d e82d 0b3d
00000220: 2c14 763d 74d2 a63d 84d2 f33d 5cd5 aabd
00000230: e8db 0bbd 8c4a 44bd 2ab6 a83d c040 fe3c
00000240: b00a 8b3d e5a1 99bd b819 533d c8f9 20bd
00000250: 9b80 97bd 96a3 0f3e 2cc6 df3d 2e69 bfbd
00000260: 3206 3abd d8bc c03d c0ca 233b 9cfa 693d
00000270: c339 88bd dc3c e23d 982c 6e3d f8d1 e3bc
00000280: 006e be3d 521d e5bc 3e9a 03be dc9a 41bd
00000290: 8864 183e cf92 433d 17b3 d3bd c86d febc
000002a0: 6f5e 1f3e faf9 1b3d f0f9 a7bd 9f9e 89bd
000002b0: 2627 db3d 3412 083d bfcc c73d 3a7b c53d
000002c0: 7830 f4bd e2df dfbd f9e5 e7bd 4a81 9cbd
000002d0: 9749 9ebd 02ca cd3d c38e f2bd 1a5d 72bd
000002e0: 1306 ea3d 17f8 9e3d 6e33 b33d 4505 8a3d
000002f0: 8419 693c 225f 1ebd bb46 e03c f76f 2d3c
00000300: 5fcb 1fbe 42bc 74bd eb6e f1bd 6c9d 103e
00000310: d730 093e fd43 f7bd 16f1 af3d c0c4 2cbe
00000320: c080 ae3d 8cd7 8b3d 1d0d 0b3d 8f4c b73c
00000330: 939a 13bd d7ab 043e f6ec a83d b181 eabd
00000340: 9e8f 79bb 71f6 dbbd 3e8a b33d e38c 2abe
00000350: 1e50 063e eab7 ed3d 15c6 08be ed13 66bd
00000360: f8f3 503d 9147 cdbd 9da9 023e e989 133d
00000370: f217 a43d 211f d9bd dca6 383c a69f c3bd
00000380: 2387 ccbd a819 69bd b132 c23c c8ba 6f3b
00000390: 5eb5 febd 6c9b da3d f42e bc3d b53b d03d
000003a0: c5e4 c8bc b9d5 803d 2f8c 15be 3255 ca3c
000003b0: 27ea edbc 7f39 0abe c1f3 b7bd 4474 7ebd
000003c0: 12f7 10be fe84 b63b 5e37 afbd 7240 e6bd
000003d0: 33d5 eebd 236b 83bd aaf4 a0bd 5837 c83c
000003e0: 4019 103b 042f 7abc b657 a03d d4f8 88bd
000003f0: c788 643d 8a42 cd3d 6b16 853d 3c83 c43d
0.12579994 0.012478034 -0.11886085 -0.03668999 0.012188448 0.09171772 0.104296386 0.06679743
0.0051298332 0.09570246 -0.12624492 -0.13609542 0.026173776 -0.13476808 0.12343117 0.058637526
-0.08660815 0.14073728 -0.13096054 -0.04828272 0.14772607 -0.13668063 -0.06021411 0.16202982
0.035935387 0.101626344 -0.12538853 -0.06199942 -0.043733962 -0.049956206 -0.09813823 0.14709952
-0.021598302 -0.011337104 -0.05149337 -0.12895748 0.11523182 -0.07577007 -0.13257018 0.02719395
0.01851203 -0.006065116 0.08105384 -0.06062592 0.12469965 -0.037937205 0.0063420236 -0.017792042
-0.05023398 -0.11627992 0.019167215 -0.15552075 -0.025577907 0.104387015 -0.04473124 -0.0806186
0.04427807 -0.13930495 -0.14367166 -0.121038996 -0.02823578 -0.12172065 0.04567931 0.031402268
-0.052010287 0.023353085 0.046363946 0.14313586 0.06731744 -0.0911651 -0.14763708 0.12894611
0.08000155 0.03730479 0.05351634 -0.11268208 -0.063023575 -0.0015748725 0.18029939 0.045791645
-0.116766475 0.1811619 -0.056358386 0.16855952 0.041975074 0.14476366 0.07805802 -0.1363315
0.046624415 0.07710923 -0.12110465 0.076110266 0.08835535 0.08992984 0.11889083 -0.01379956
0.09122528 -0.014419549 0.054235317 -0.07265904 -0.018355105 0.1407603 -0.12536468 -0.07253606
0.016177751 -0.06900489 0.017936254 0.03249771 0.021836396 0.022030598 -0.014974963 0.025853923
-0.12634467 -0.01997414 0.065921545 0.053049956 -0.071590774 0.09287741 -0.052456617 -0.11750156
0.05287944 0.035595085 0.059487484 0.03982857 0.088454746 -0.06230262 0.06346702 -0.08045054
-0.07043617 -0.085703805 -0.04515329 0.012602299 0.10998613 0.09626466 0.083311945 0.033979326
0.06007783 0.081456095 0.11905387 -0.08341476 -0.034145266 -0.047922656 0.0823787 0.031036735
0.06789148 -0.07501582 0.0515382 -0.03930071 -0.073975764 0.14027247 0.1092647 -0.09346233
-0.045416065 0.09411019 0.0024992675 0.057123765 -0.06651642 0.11046764 0.058147997 -0.027810082
0.092983246 -0.027968083 -0.12851807 -0.047266826 0.148821 0.04774743 -0.10336893 -0.031058207
0.15563367 0.038080193 -0.08201969 -0.06719708 0.10700826 0.033220485 0.09755849 0.09642644
-0.11923307 -0.10931374 -0.11323161 -0.076418474 -0.0772888 0.100482956 -0.11843636 -0.05917082
0.1142694 0.07762163 0.08750044 0.06739286 0.014227275 -0.038664944 0.027377477 0.0105857765
-0.15604924 -0.05974985 -0.11788734 0.14122552 0.13397537 -0.120735146 0.08590905 -0.16871929
0.08520651 0.06828222 0.033948053 0.022375373 -0.036036085 0.12956177 0.08248322 -0.11450518
-0.0038079987 -0.10740364 0.08766602 -0.16655307 0.131165 0.116073444 -0.13356812 -0.056171346
0.051013917 -0.10023416 0.12760015 0.036020193 0.0801238 -0.106016405 0.011270251 -0.09551935
-0.09986713 -0.056909233 0.023705812 0.0036579836 -0.12436937 0.106741756 0.09188643 0.10167638
-0.024523148 0.06290764 -0.14604257 0.024698827 -0.029042317 -0.13498496 -0.08982039 -0.0621226
-0.1415675 0.005570053 -0.08555482 -0.11242761 -0.11661758 -0.06416919 -0.07859166 0.024440452
0.0021987706 -0.015269998 0.078292295 -0.06688085 0.055794504 0.10022457 0.064984165 0.095953435

sequential/lstm_2/while/lstm_cell/BiasAdd/ReadVariableOp f4 [128]
00000000: 0ae6 033e 54b7 8abc 4109 733d 1786 953c
00000010: d054 5f3c 50b4 bc3c 6089 cc3c 90e0 143d
00000020: 66a6 9a3c 7f0d 0f3d 1f96 71bb cf2a e73d
00000030: 2dd3 103d 6184 43bc a57c 60bc 9779 91bc
00000040: 03ba 8dbc 36d0 f93b 3df9 2a3d 0095 20bc
00000050: c6f2 94bc ffc3 6d3d 9a6f ad3b 9f97 b7bc
00000060: 0825 913c 8bc1 9c3c c794 02bc 8472 b9bc
00000070: 3344 5b3d 8bfb 9e3b 50b0 80bb 4617 2ebc
00000080: 31e6 9e3f f2c1 7d3f 8ba8 893f 5185 823f
00000090: c142 813f 0451 7f3f d4ff 813f 128c 8a3f
000000a0: d850 823f 96ca 823f 6628 803f f100 973f
000000b0: e3fe 8d3f 1012 813f 6179 7c3f fd06 7e3f
000000c0: b266 803f cf94 843f 6492 823f ac4b 7f3f
000000d0: 0f6a 7f3f d4c1 813f 5086 803f 10de 803f
000000e0: 006c 823f e28d 7a3f b524 7c3f 596f 7c3f
000000f0: 6d88 953f 4348 803f 2098 7e3f b476 813f
00000100: af7f 243e 3690 acbc 4c72 943d 44cf c0bc
00000110: 21ef 1d3d 1119 413c 1695 b23c 86d0 ef3c
00000120: 139d bb39 2fb9 88bb 0a5f 413d e68a 973d
00000130: e187 6f3d 2784 87bc c1e0 49bc 2c87 c4bc
00000140: 19c5 28bd 957e c23c 6b48 f93b 7f25 a6bc
00000150: dbbb 043d efc3 b43d 066f 8dbb 8d46 84bd
00000160: 6311 3fba 16c4 fab8 bcc7 c5bb b006 5cbc
00000170: 95c3 be3d 4cef fbbc 0e58 90bc 062a 343b
00000180: 5041 223e 0882 81bc 589d 573d 77a2 e13c
00000190: e4a9 0f3c 09a9 953c 25d8 093d ec01 153d
000001a0: e479 ff3a eb3a 40bc d412 12bc 8ac4 a33d
000001b0: a7e5 1f3d aaec 56ba 5160 63bc b03e bfbc
000001c0: 993a fdbc 2373 81bb c51e d1bc e9aa 82bc
000001d0: d9ba 833c 3c86 433d 4101 433b a92c 9c3c
000001e0: 9c8b b93c 9420 b03c 4f0d 03bb 2250 cabc
000001f0: af0d 703d 3c2d dabc 58d9 da3b 1f9e 77bb
0.12880722 -0.01693312 0.059334997 0.018252416 0.013631061 0.023035198 0.02496785 0.036346972
0.018878173 0.03492498 -0.003686316 0.11287462 0.035357643 -0.011933417 -0.013701593 -0.017758174
-0.017300611 0.0076236976 0.0417416 -0.009801149 -0.01818217 0.058048245 0.005292845 -0.022411166
0.017717853 0.019135257 -0.007970042 -0.022637613 0.053531837 0.0048517636 -0.003927268 -0.010625666
1.2413999 0.9912406 1.075456 1.0196935 1.0098497 0.99732995 1.0156198 1.0823996
1.0180922 1.0218074 1.0012329 1.1797162 1.109341 1.0083637 0.9862271 0.99229413
1.003134 1.0357913 1.0200925 0.9972484 0.9977121 1.0137277 1.0040989 1.0067768
1.0189209 0.97872746 0.9849351 0.98607403 1.1682259 1.0022053 0.99450874 1.011435
0.16064332 -0.021064859 0.07248363 -0.023536332 0.03855813 0.011785761 0.021799605 0.029274236
0.0003578445 -0.004172466 0.047209777 0.0739954 0.058479194 -0.016542507 -0.012321652 -0.023990236
-0.041203592 0.023742 0.00760751 -0.020281551 0.032405715 0.08826434 -0.0043162135 -0.06458769
-0.00072886626 -0.00011957453 -0.006035773 -0.013429329 0.09314648 -0.030753754 -0.017620113 0.0027490868
0.15845227 -0.015809074 0.05264029 0.02754329 0.008768532 0.018269079 0.033653397 0.036378786
0.0019491282 -0.011732797 -0.008915622 0.07996471 0.039037373 -0.0008198718 -0.013877944 -0.023345321
-0.03091173 -0.003950493 -0.025527367 -0.015950637 0.016080307 0.047735438 0.0029755386 0.019064264
0.022649579 0.02149991 -0.0019996946 -0.024696413 0.0586068 -0.026632898 0.0066787414 -0.0037783457
